King_Slime.pth (torch, 38182 bytes, 6 tensors)

fc1.weight f4 [128, 2]
0	0xbf42539f	-0.75908846
1	0xbe0528ce	-0.13003847
2	0xbf18dac4	-0.5970881
3	0xbb00880d	-0.0019612343
4	0xbe8e0ced	-0.27744237
5	0xbc5905d2	-0.013246017
6	0xbed79804	-0.42108166
7	0xbe312d6d	-0.17302485
8	0xbec1cb26	-0.37850302
9	0xbe7fd24b	-0.24982564
10	0xbf008da5	-0.5021613
11	0xbf170ad5	-0.59000903
12	0xbfa9ecb8	-1.3275366
13	0xbe3f34c7	-0.18672477
14	0xbe7b16a4	-0.24520355
15	0xbd00f4be	-0.031483404
16	0xbf20556c	-0.62630343
17	0xbfa9cae5	-1.3265043
18	0xbe8bc155	-0.27295938
19	0xbf23b29b	-0.63944405
20	0xbf1090c7	-0.5647091
21	0x3d2995fd	0.041402806
22	0xbe148a5d	-0.14505906
23	0xbdef2f36	-0.11678927
24	0xbedd0e89	-0.43175152
25	0xbe41b06d	-0.18914957
26	0xbeb76c5a	-0.35824853
27	0xbf414aaf	-0.75504583
28	0xbf88d625	-1.0690352
29	0xbf3fb223	-0.7488119
30	0xbf2a479a	-0.66515505
31	0x3e2ed60b	0.17073838
32	0xbe11f256	-0.142526
33	0xbdf8aee9	-0.121427365
34	0xbf812edb	-1.0092424
35	0x3e5bba53	0.21457796
36	0xbefc0e29	-0.49229553
37	0xbd91ae79	-0.07113356
38	0xbc6844e7	-0.014176584
39	0xbda7e2f7	-0.08197587
40	0xbe649e36	-0.22325978
41	0xbf19f834	-0.6014435
42	0xbdb31c29	-0.087456055
43	0x3c0de8ee	0.008661492
44	0xbcda6a7a	-0.0266621
45	0xbdfd6f32	-0.123747244
46	0xbecb1fde	-0.3967275
47	0xbf645d81	-0.89205176
48	0xbeb821d2	-0.35963303
49	0x3da5f5cb	0.08103522
50	0xbe9d23cd	-0.30691376
51	0xbecc7a5b	-0.399371
52	0xbe6fd34a	-0.23420444
53	0x3cf01f1c	0.02931171
54	0xbf409b0f	-0.752366
55	0xbfa0ce5c	-1.2562976
56	0xbf2eb15b	-0.6823937
57	0x3e08eb55	0.13371022
58	0xbd504914	-0.050850943
59	0xbdffefcd	-0.1249691
60	0xbed1290a	-0.40851623
61	0xbf8a2315	-1.0791956
62	0xbe93d43d	-0.28872862
63	0xbf3d16ad	-0.73862725
64	0xbf916875	-1.1360003
65	0x3ec42e7e	0.3831672
66	0xbe669688	-0.2251836
67	0xbf25ca49	-0.6476179
68	0xbe875426	-0.26431388
69	0xbecba26b	-0.39772353
70	0xbf57e1f6	-0.84329164
71	0x3e8a150b	0.2696918
72	0xbe07137f	-0.13191031
73	0xbceb0e0c	-0.028693222
74	0xbe3b7652	-0.18306854
75	0xbf073e35	-0.52829295
76	0xbeddaff3	-0.432983
77	0xbf5e99ff	-0.8695373
78	0xbf3e852b	-0.7442195
79	0xbbd73ee2	-0.0065687755
80	0xbf088b8a	-0.5333792
81	0x3e30f5a8	0.1728121
82	0xbeeb900b	-0.46008334
83	0xbdd3a13d	-0.10333488
84	0xbe972d96	-0.29526967
85	0x3d9030ea	0.070405796
86	0xbe88dc37	-0.2673051
87	0xbe2f55b2	-0.17122534
88	0xbfd85f9d	-1.6904179
89	0xbea7710e	-0.3270344
90	0xbeb11d12	-0.3459249
91	0xbe538cdf	-0.20659207
92	0xbef1f240	-0.47255135
93	0x3e0d5078	0.13800228
94	0xbe97e772	-0.29668766
95	0xbf18438c	-0.5947807
96	0xbf474484	-0.7783892
97	0x3e55c02d	0.2087409
98	0xbf5289d4	-0.8224156
99	0xbdf462f1	-0.11932934
100	0xbf1263da	-0.5718361
101	0xbd37e0a7	-0.04489198
102	0xbde44b80	-0.11147213
103	0xbf7f222b	-0.9966151
104	0xbe1746a2	-0.14773038
105	0xbe0f5c19	-0.13999976
106	0xbef833e7	-0.48477098
107	0x3d9fb7fe	0.077987656
108	0xbef15e60	-0.47142315
109	0x3e76cc3e	0.2410135
110	0xbed3dfe0	-0.4138174
111	0xbdc47256	-0.0959212
112	0xbebeb207	-0.372452
113	0x3d096ec5	0.033552904
114	0xbe1201ba	-0.14258471
115	0xbf4d18ad	-0.8011578
116	0xbebf543a	-0.37368947
117	0xbf0212b9	-0.5080982
118	0xbe9c8fcb	-0.30578455
119	0xbeda33ed	-0.4261774
120	0xbe1a0597	-0.15041195
121	0xbd1f3dc1	-0.038877252
122	0xbf566c02	-0.83758557
123	0xbd9774ed	-0.07395349
124	0xbd6ca670	-0.057775915
125	0xbce07e40	-0.02740395
126	0xbee3bf9c	-0.44482124
127	0xbe8e03fc	-0.27737415
128	0xbf198829	-0.5997339
129	0x3dd28f79	0.102812715
130	0xbe618e07	-0.22026835
131	0xbd6bfa11	-0.05761153
132	0xbedd5292	-0.4322706
133	0x3dd98832	0.1062168
134	0xbd310760	-0.043219924
135	0xbdde1840	-0.10844469
136	0xbe0c6768	-0.13711321
137	0xbf15130b	-0.5823218
138	0xbc1da095	-0.009620805
139	0xbd9cb7d7	-0.07652252
140	0xba0c8dad	-0.00053616875
141	0xbd72aa52	-0.05924446
142	0xbdd16068	-0.10223466
143	0xbdfee270	-0.12445533
144	0xbe9fce68	-0.31212163
145	0xbe525794	-0.20541221
146	0xbed3491a	-0.4126671
147	0xbdd3ee16	-0.10348146
148	0xbcf52623	-0.029925412
149	0xbe56f3c8	-0.20991433
150	0xbf165da2	-0.5873662
151	0x3dd32dbc	0.103114575
152	0xbe3257a1	-0.1741624
153	0xbd9234b1	-0.07138956
154	0xbbc2eb20	-0.0059484392
155	0xbf13d209	-0.57742363
156	0xbec12c4c	-0.37729108
157	0xbe86653a	-0.26249105
158	0xbe94741c	-0.28994834
159	0x3d8de71a	0.06928845
160	0xbf387e3d	-0.72067624
161	0x3d5b3d6c	0.053525373
162	0xbea01985	-0.3126947
163	0xbf11529f	-0.56766695
164	0xbefe1af0	-0.49629927
165	0xbdb9e12e	-0.09076153
166	0xbe8c1b26	-0.27364463
167	0xbec9c519	-0.39408186
168	0xbc2c24c8	-0.010506816
169	0xbeeab736	-0.45842904
170	0xbe98811c	-0.29786003
171	0xbf12119e	-0.5705813
172	0xbe928238	-0.28614974
173	0xbf2c1104	-0.67213464
174	0xbf3b26be	-0.7310599
175	0x3d302200	0.043001175
176	0xbe2feab7	-0.1717938
177	0xbeddaf99	-0.43298033
178	0xbcc959c5	-0.024578938
179	0xbc9e307d	-0.01931023
180	0xbe46fa0b	-0.19431321
181	0x3d0140c0	0.03155589
182	0xbf0c54ab	-0.54816693
183	0x3db77d37	0.0895943
184	0xbe978537	-0.29593822
185	0xbee2de78	-0.44310355
186	0xbe3752d1	-0.17902686
187	0xbd9a32dc	-0.07529232
188	0xbd868217	-0.065677814
189	0x3d0ff811	0.035148684
190	0xbf06d034	-0.5266144
191	0xbb75f0e8	-0.0037527625
192	0xbee38b9e	-0.44442457
193	0xbe6da891	-0.23208834
194	0xbd70c0f4	-0.058777764
195	0xbe8c468a	-0.27397567
196	0xbdd9d88f	-0.106370084
197	0xbf1f242f	-0.62164587
198	0xbe668881	-0.2251301
199	0x3d69583d	0.056968916
200	0xbf8214d2	-1.0162604
201	0x3e867b61	0.26266006
202	0xbd5538ee	-0.052056246
203	0xbd3d27eb	-0.046180647
204	0xbf09c1e2	-0.53811467
205	0x3d8d9790	0.06913674
206	0xbd3a71a6	-0.04551854
207	0xbcd1b212	-0.025597606
208	0xbcf55b97	-0.0299509
209	0xbe513780	-0.20431328
210	0xbf43e6f8	-0.76524305
211	0x3e12f475	0.14351065
212	0xbe28e277	-0.1649264
213	0xbd9df233	-0.077122115
214	0xbf6ed065	-0.93286735
215	0xbeb14294	-0.34621108
216	0xbd310ec6	-0.04322698
217	0xbe9a29f3	-0.3011013
218	0xbeb564c3	-0.35428438
219	0x3d0c2190	0.034211695
220	0xbeb94070	-0.36181974
221	0x3e2b8a82	0.16752055
222	0xbf1cee11	-0.6130076
223	0x3e62bf00	0.22143173
224	0xbe84baed	-0.25923863
225	0xbfa7c3c0	-1.3106613
226	0xbcaa13f9	-0.020761477
227	0xbe3a2b58	-0.18180597
228	0xbe92789f	-0.28607652
229	0xbf3c88bb	-0.73646134
230	0xbee3dce8	-0.44504476
231	0x3d4f57c6	0.050620817
232	0xbf56cffa	-0.839111
233	0x3e04bad3	0.12961893
234	0xbf0564e6	-0.52107084
235	0xbe4291e3	-0.19000964
236	0xbce59e29	-0.028029518
237	0xbd9a31cc	-0.07529029
238	0xbbcfabfa	-0.00633764
239	0xbe239199	-0.1597351
240	0xbe965a46	-0.29365748
241	0xbec14b3a	-0.37752706
242	0xbf8fe16d	-1.124067
243	0xc015f4b2	-2.34306
244	0xbeffb207	-0.49940512
245	0xbd80e49c	-0.06293604
246	0xbf5317fe	-0.82458484
247	0x3ed53d9c	0.41648567
248	0xbf90c51e	-1.1310155
249	0xbf23e680	-0.6402359
250	0xbe56e31e	-0.20985076
251	0xbe470d77	-0.1943873
252	0xbe02f5a8	-0.12789023
253	0xbd00e4e0	-0.031468272
254	0xbea70546	-0.3262121
255	0xbe6a2431	-0.22865368

fc1.bias f4 [128]
0	0xbf9968c8	-1.1985102
1	0xbf3eb837	-0.7449984
2	0xbea0bade	-0.31392568
3	0xbf5b9787	-0.8577809
4	0xbf01c104	-0.50685143
5	0x3f35fe69	0.71091324
6	0xbe9f4ae4	-0.31111825
7	0xbee0c234	-0.43898165
8	0x3f85f6f0	1.0465984
9	0xbf37abae	-0.7174634
10	0xbf19388e	-0.5985192
11	0xbf47e2e8	-0.78080606
12	0xbf523807	-0.8211674
13	0xbf3d07d6	-0.7384008
14	0x3ebc73fe	0.36807245
15	0xbf5b7232	-0.85721123
16	0xbf169f60	-0.58836937
17	0xbf9e6c33	-1.237677
18	0xbf11aaf5	-0.56901485
19	0xbe18cb2b	-0.14921252
20	0xbe0235d4	-0.12715846
21	0xbf061316	-0.5237287
22	0xbe8c65ea	-0.27421504
23	0xbf09df2f	-0.53856176
24	0xbe95709d	-0.2918748
25	0xbf3975bc	-0.72445273
26	0xbe5a8e7b	-0.21343414
27	0x3f434485	0.7627643
28	0xbf9092d3	-1.1294807
29	0xbe3f268c	-0.18667048
30	0x3d6d6c51	0.057964627
31	0xbef2ad6a	-0.4739793
32	0xbe9161d1	-0.2839494
33	0xbf8a99e6	-1.0828216
34	0xbf519d2c	-0.8188045
35	0xbf6a1839	-0.9144321
36	0xbe73eadf	-0.23820065
37	0xbe9f9152	-0.31165558
38	0x3f3fce77	0.74924415
39	0xbf52ba15	-0.8231519
40	0xbf041dc2	-0.51607907
41	0xbea91982	-0.33027273
42	0xbe8ed81d	-0.27899256
43	0xbf0d830f	-0.55278105
44	0xbe8bdc2e	-0.2731642
45	0xbf11ec5e	-0.5700129
46	0xbf834dbe	-1.02581
47	0xbeeee080	-0.46655655
48	0xbf1f4d66	-0.62227476
49	0xbf87ff23	-1.0624737
50	0xbf7f8047	-0.9980511
51	0xbf128090	-0.5722742
52	0xbeee841f	-0.46585175
53	0xbf5e1129	-0.86744934
54	0xbf5efec4	-0.8710749
55	0xbf52ceec	-0.8234699
56	0xbedaa6f9	-0.42705515
57	0xbf84be16	-1.037051
58	0x3edd0a27	0.43171808
59	0xbef5526c	-0.47914445
60	0x3d477f0f	0.048705157
61	0xbf699902	-0.91249096
62	0xbe96322e	-0.2933516
63	0xbf3985a4	-0.72469544
64	0xbea36a07	-0.3191683
65	0xbeda1a5e	-0.42598242
66	0xbf3b603c	-0.73193717
67	0xbf0bb7c9	-0.5457731
68	0xbf52441a	-0.82135165
69	0xbe91598a	-0.28388625
70	0xbeba42b8	-0.36379027
71	0xbf1fcf5d	-0.62425786
72	0xbf0a85c6	-0.5411037
73	0xbf61fd37	-0.88277
74	0xbe807a83	-0.2509347
75	0xbf8f0f36	-1.1176517
76	0xbf39a2ed	-0.7251423
77	0xbf4ebd12	-0.8075725
78	0xbf500a19	-0.8126541
79	0xbf306f26	-0.689196
80	0xbe72c621	-0.23708393
81	0xbe77cf8b	-0.24200265
82	0xbf18799b	-0.59560555
83	0x3efe203f	0.49633977
84	0xbf4be823	-0.7965109
85	0xbe4ec73d	-0.20193191
86	0xbfb264f8	-1.3937063
87	0xbf67b74f	-0.9051408
88	0xbf8bdb73	-1.0926346
89	0xbf479bdc	-0.779722
90	0xbec8f99e	-0.39252943
91	0xbf356581	-0.7085801
92	0xbef47670	-0.4774661
93	0xbeba29b6	-0.36359948
94	0xc01a19ec	-2.4078321
95	0xbf12dba2	-0.57366383
96	0xbf0aaa57	-0.5416617
97	0xbf83e4a1	-1.0304147
98	0xbf46aec3	-0.77610415
99	0xbef4cb83	-0.47811517
100	0xbf4c35fd	-0.7976988
101	0xbdda110e	-0.10647784
102	0xbe79f50a	-0.24409881
103	0xbf60c20d	-0.877961
104	0xbe70a6a4	-0.23501068
105	0xbf5225c1	-0.8208886
106	0xbd2752a5	-0.0408503
107	0xbe81a3a1	-0.2532015
108	0xbeec8b16	-0.46199864
109	0xbed621c2	-0.4182263
110	0xbf1069ab	-0.56411237
111	0xbf68c606	-0.9092716
112	0xbe11f30e	-0.14252874
113	0xbe802251	-0.2502618
114	0xbf1770e8	-0.59156656
115	0xbee69bce	-0.45040745
116	0xbf5e088a	-0.8673178
117	0xbf7dc6a3	-0.9913122
118	0xbde181b9	-0.11011071
119	0xbf79eeef	-0.9763021
120	0xbf0b3e49	-0.54391915
121	0x3f1b9fff	0.6079101
122	0xbf12af64	-0.57298875
123	0xbf3462ee	-0.70463455
124	0x3bf43c5c	0.0074534845
125	0x3e229c04	0.15879828
126	0xbe6bcc82	-0.23027232
127	0xbe5a63c5	-0.21327122

fc2.weight f4 [64, 128]
0	0x3cad357a	0.021143664
1	0xbd8ea6a5	-0.06965379
2	0xbd146e5f	-0.03623807
3	0x3cf72a98	0.030171677
4	0x3d3c758a	0.04601053
5	0x3d67800b	0.056518596
6	0xbeb70299	-0.3574417
7	0x3d4fd682	0.05074168
8	0xbd41b3d1	-0.047290627
9	0xbdb4c73d	-0.08827064
10	0xbd28a154	-0.04116948
11	0xbdda2d2b	-0.10653146
12	0x3d40ef79	0.04710338
13	0xbdbd7814	-0.09251419
14	0xbc3d3e88	-0.011550553
15	0xbe731b70	-0.23740935
16	0x3e895655	0.2682368
17	0x3d6364d2	0.05551607
18	0xbd83a2a3	-0.06427505
19	0x3d85c14b	0.06531008
20	0xbe8e628b	-0.27809557
21	0xbd161fb5	-0.036651332
22	0x3d37dad3	0.04488642
23	0xbd6a7a91	-0.057245795
24	0xba1da600	-0.00060138106
25	0x3b828b70	0.0039839074
26	0xbbb15920	-0.005412236
27	0x3b80b73e	0.003928094
28	0x3d792f96	0.060836397
29	0x3c550c20	0.013003379
30	0x3d5c49b4	0.053781226
31	0xbeadcb5f	-0.33944222
32	0xbc765c3b	-0.015036638
33	0xbd453613	-0.048147272
34	0xbddeeb52	-0.108847275
35	0xbd2b2883	-0.04178668
36	0xbd8cb6ac	-0.068707794
37	0x3cb5de4f	0.022200732
38	0x3db4b511	0.08823598
39	0x3cc01a88	0.023450151
40	0x3d45fea2	0.04833854
41	0xbeb9e601	-0.36308292
42	0xbe9bc78b	-0.30425677
43	0x3d861a35	0.06547967
44	0x3d0088aa	0.031380333
45	0x3d8af763	0.067854665
46	0x3caa0ee4	0.020759054
47	0x3d5a4a06	0.05329325
48	0xbba2bcd0	-0.004966356
49	0xbd598798	-0.053107828
50	0x3b5bfeea	0.0033568689
51	0xbce20290	-0.027589113
52	0xbdf0021d	-0.11719153
53	0xbd3fa8a6	-0.046791695
54	0xbb8f1028	-0.0043659396
55	0xbd8c0618	-0.068371
56	0xbe96f474	-0.29483378
57	0xbcdb6bc4	-0.026784785
58	0x3d951392	0.07279123
59	0xbd21039e	-0.03931009
60	0x3c8da604	0.017291076
61	0x3ce3af8c	0.027793668
62	0x3b625e00	0.0034540892
63	0xbd982b37	-0.074301176
64	0xbe8c859f	-0.27445695
65	0x3d1d2d3e	0.038373224
66	0xbe8551d2	-0.26038986
67	0x3d9a36e7	0.07530003
68	0xbbf573d0	-0.0074906126
69	0xbda24e34	-0.07925072
70	0x3d07aa94	0.03312166
71	0xbd104f09	-0.035231624
72	0xbd8d4715	-0.068983234
73	0xbd6bcda0	-0.057569146
74	0xbcff86c2	-0.031192187
75	0xbc56ecc8	-0.0131179765
76	0xbd258cf4	-0.040417627
77	0xbc211603	-0.009831908
78	0xbd948dfe	-0.07253645
79	0xbc3c373f	-0.011487781
80	0xbd2c7c69	-0.042110834
81	0xbcfae9da	-0.030629087
82	0x3c98fd40	0.018675447
83	0xbcdb13ea	-0.026742894
84	0xbd2cceec	-0.042189524
85	0xbd8a81a6	-0.0676301
86	0xbc5c559c	-0.013448145
87	0xbc4e0b10	-0.01257588
88	0xbccced98	-0.025015637
89	0xbd804586	-0.062632605
90	0xbd6c0ba8	-0.057628304
91	0xbe893913	-0.26801357
92	0x3c2f2b98	0.010691546
93	0xbde0b488	-0.109719336
94	0xbd491c9d	-0.049099553
95	0x3d9c082b	0.076187454
96	0xbd14eba7	-0.036357548
97	0xbde47c37	-0.111565046
98	0xbdabce83	-0.08388998
99	0x3bf00d46	0.007325801
100	0x3ba6e140	0.00509277
101	0xbd5dd3db	-0.05415712
102	0xbda37bab	-0.07982572
103	0xbdb06f51	-0.08614982
104	0x3d7864ec	0.06064312
105	0xbaa8fcf5	-0.001289277
106	0xbcb723b1	-0.022355886
107	0xbda51589	-0.08060748
108	0xbd2c689f	-0.042091962
109	0x3d66e942	0.056374796
110	0xbc8f1914	-0.017468013
111	0x3d62498a	0.055245914
112	0xbd51ab42	-0.051188715
113	0xbe8c8e77	-0.27452442
114	0xbd1573c5	-0.03648736
115	0x3b96614b	0.004589235
116	0xbd0292a9	-0.031878147
117	0xbdb63c9c	-0.08898279
118	0xbadefeff	-0.0017013251
119	0x3cf889be	0.030339118
120	0xbd867140	-0.065645695
121	0x3dd2bca4	0.102898866
122	0x3c3b74d0	0.0114414245
123	0x3dae503f	0.085113995
124	0xbd204510	-0.039128363
125	0xbd500202	-0.050783165
126	0xbcbc7868	-0.023006633
127	0x39bfcd6b	0.00036583407
128	0xbc3cd870	-0.011526212
129	0xbe00395a	-0.12521878
130	0x3cca9e24	0.02473361
131	0x3e5fb021	0.21844532
132	0xbd744d78	-0.059644192
133	0xbcbbbc64	-0.02291698
134	0xbd03c7c1	-0.032172922
135	0xbd1d7304	-0.038439766
136	0xbdcff94a	-0.1015497
137	0xbdaa9317	-0.083288364
138	0xbcf7bc4a	-0.03024115
139	0x3bc90f90	0.0061358884
140	0xbdab26b0	-0.083569884
141	0xbdb3fb5f	-0.087881796
142	0xbb76b545	-0.0037644666
143	0xbc8c4d1c	-0.017126612
144	0xbd85d33b	-0.0653443
145	0xbd6ac197	-0.057313528
146	0xbc9a2c7e	-0.018820044
147	0x3d3dd5ba	0.046346404
148	0xbc7aa298	-0.015297554
149	0x3b7eb4a0	0.0038864985
150	0xbda37f60	-0.07983279
151	0xbc9a687e	-0.018848654
152	0xbc178bd3	-0.009249645
153	0x3ca63a38	0.020291433
154	0xbdd34582	-0.10315992
155	0xbe0b94cf	-0.13630985
156	0xbd64fdd0	-0.055906117
157	0xbde67406	-0.112525985
158	0xbc13b9f7	-0.009016505
159	0xbe7da886	-0.24771318
160	0x3ec334ed	0.38126317
161	0xbd5b6941	-0.053567175
162	0xbce8ec40	-0.028432965
163	0x3c5deedb	0.013545717
164	0xbddc25c9	-0.107493944
165	0xbd770799	-0.06030998
166	0x3c8f6d88	0.017508283
167	0x3c129078	0.008945577
168	0xbd517f2a	-0.051146664
169	0xbd8a3408	-0.067482054
170	0xbd0ebaa0	-0.03484595
171	0xbdb33c1e	-0.08751701
172	0xbcc4c95b	-0.024021795
173	0xbd99ec93	-0.07515826
174	0xbd14d128	-0.03633228
175	0xbeb735ad	-0.3578314
176	0xbdc330fa	-0.09530826
177	0xbd062255	-0.032747585
178	0xbdf1e692	-0.11811556
179	0xbba1ca6c	-0.0049374606
180	0x3d2807f2	0.041023202
181	0xbda8bd83	-0.082392715
182	0xbdb2e1e9	-0.08734495
183	0xbdda7885	-0.106675185
184	0xbc72e011	-0.014823929
185	0xbd34754c	-0.044057176
186	0x3c39678e	0.011316193
187	0x3c1e288d	0.009653223
188	0xbcddc4e1	-0.027071418
189	0xbd8e4d08	-0.06948286
190	0xbc65aa48	-0.014017649
191	0xbe0efc6d	-0.1396348
192	0xbdaa6fa1	-0.08322073
193	0xbd96d8a6	-0.07365541
194	0xbd169f74	-0.03677316
195	0x3d9bd46d	0.076088764
196	0xbc6f2498	-0.014596127
197	0x3dacadab	0.08431562
198	0xbd2bc5f2	-0.041936822
199	0x3d9213ff	0.0713272
200	0xbda614c3	-0.08109429
201	0xbd50678a	-0.050879993
202	0xbd5e741a	-0.05430994
203	0x3da1dc1d	0.079033114
204	0xbd8488e1	-0.0647142
205	0x3d0cd758	0.034385055
206	0xbe0a71c9	-0.13519968
207	0x3d291082	0.04127551
208	0xbe020ff0	-0.12701392
209	0x3caa4871	0.020786496
210	0xbe028e95	-0.12749703
211	0xbda178ff	-0.07884406
212	0x3cf9fd68	0.030516341
213	0xbd9944b0	-0.07483804
214	0x3cb92bd0	0.0226039
215	0xbd0af83e	-0.03392815
216	0xbda566a4	-0.08076218
217	0x3b988a70	0.004655175
218	0xbe08f435	-0.13374408
219	0xbd748a16	-0.059702
220	0x3e354ed1	0.17705847
221	0xbd4c7c95	-0.0499235
222	0xbeca3a34	-0.3949753
223	0x3c1c75af	0.009549542
224	0xbcc079c1	-0.023495557
225	0xbcd53992	-0.026028428
226	0xbd8063cc	-0.06269035
227	0xbdaad43f	-0.08341264
228	0xbda5d1e5	-0.08096675
229	0xbbcfc420	-0.0063405186
230	0xbe072fc6	-0.13201818
231	0x3d7e1896	0.062035166
232	0xbd3b3d85	-0.045712966
233	0x3b3c9103	0.0028772957
234	0xbe077b9f	-0.13230751
235	0x3ba5e980	0.0050632358
236	0xbd800d88	-0.06252581
237	0x3d194f12	0.037428923
238	0xbda5f905	-0.08104137
239	0xbdacad7f	-0.08431529
240	0xba703a31	-0.00091639446
241	0xbdcaae4d	-0.098965265
242	0xbdf58d7a	-0.11989875
243	0x3d6d763a	0.057974078
244	0xbcc639e2	-0.024197523
245	0x3d2ec9ae	0.042672805
246	0x3bd93d40	0.006629616
247	0x3d5e18d2	0.05422289
248	0xbcabf325	-0.020989964
249	0x3adaaa93	0.0016682915
250	0xbd040390	-0.03222996
251	0xbd53b372	-0.051684804
252	0x3be90fb1	0.0071124663
253	0xbd15131a	-0.03639517
254	0xbca54ab4	-0.020177223
255	0xbcfe9b39	-0.031079875

fc2.bias f4 [64]
0	0xbf6f4f63	-0.9348051
1	0xbe33e75a	-0.17568722
2	0xbd56575e	-0.052329414
3	0xbf35bafc	-0.7098844
4	0xbb0324ec	-0.002001102
5	0xbd724b1e	-0.05915367
6	0xbf5bdc5f	-0.85883135
7	0xbe283a49	-0.16428484
8	0xbe16bafd	-0.14719768
9	0xbf5ee39b	-0.8706605
10	0xbed7f01e	-0.42175382
11	0xbfa129f1	-1.2590925
12	0xbf23f041	-0.64038473
13	0xbf857285	-1.0425574
14	0xbac8b882	-0.0015313777
15	0xbe9d2088	-0.30688882
16	0xbe1901b9	-0.14942063
17	0xbea277c7	-0.31732008
18	0xbf49058d	-0.78524095
19	0xbece5559	-0.4029949
20	0xbf4f094e	-0.8087357
21	0xbefc0b06	-0.4922716
22	0xbd1df880	-0.038567066
23	0xbf5e2c6b	-0.86786526
24	0xbdaef330	-0.08542478
25	0xbeb5c76f	-0.35503718
26	0xbeebe108	-0.46070123
27	0xbf284307	-0.65727276
28	0xbed3256a	-0.41239482
29	0x3f35d9de	0.71035564
30	0xbf28c7aa	-0.65929663
31	0xbe3242c4	-0.17408282
32	0xbf503b72	-0.81340706
33	0xbf3f1ac6	-0.7465023
34	0xbf1730d6	-0.5905889
35	0xbe105848	-0.14096177
36	0xbf0f99f3	-0.5609428
37	0xbf1c69f8	-0.61099195
38	0xbf1b04d6	-0.60554254
39	0xbe1de7b5	-0.1542042
40	0xbf3e592d	-0.7435482
41	0xbf3c535c	-0.73564696
42	0xbf52e6b1	-0.8238326
43	0xbf4e9ce7	-0.80708164
44	0xbea265eb	-0.31718382
45	0xbe79d65e	-0.24398181
46	0xbee618c1	-0.4494076
47	0xbf04ce83	-0.5187761
48	0xbf4cf40f	-0.80059904
49	0xbeb371d7	-0.3504779
50	0xbeac610f	-0.336678
51	0xbdcca3df	-0.099921934
52	0xbf5d0ce2	-0.8634778
53	0xbf18cff5	-0.5969232
54	0xbe11caf2	-0.14237574
55	0xbeeefd2e	-0.46677536
56	0xbf385ee1	-0.72019774
57	0xbe99395b	-0.2992657
58	0xbeda15c9	-0.42594746
59	0xbf84b541	-1.0367814
60	0xbef1316c	-0.47108018
61	0xbf0b0cc3	-0.5431635
62	0xbf17dd5d	-0.5932215
63	0xbe9b01d4	-0.30274832

fc3.weight f4 [4, 64]
0	0x3e96505f	0.29358193
1	0x3d078026	0.033081196
2	0x3e33d061	0.17559959
3	0x3e8a3e8f	0.27000853
4	0x3ef14ac7	0.47127363
5	0x3d6c111d	0.057633508
6	0x3da146dc	0.078748435
7	0x3e9d19d0	0.30683756
8	0x3f7d1d90	0.98873234
9	0x3f2b1ffe	0.6684569
10	0x3e8dfcbf	0.27731892
11	0xbedb05a3	-0.42777738
12	0x3d6dbf37	0.058043685
13	0x3df69ee6	0.12042026
14	0xbe8a93e6	-0.27065963
15	0xbe8bc3c3	-0.27297792
16	0x3e9910a0	0.29895496
17	0x3b5c430a	0.0033609294
18	0xbe1aa494	-0.15101844
19	0xbe054a12	-0.13016537
20	0x3e28db94	0.16490012
21	0x3e0c5825	0.137055
22	0x3e54ad95	0.20769341
23	0xbd00986c	-0.03139536
24	0xbeac5cac	-0.33664453
25	0xbe354719	-0.17702903
26	0x3f2a8147	0.6660351
27	0x3eceec5a	0.40414697
28	0xbc1c8b63	-0.009554717
29	0x401ce34f	2.4513738
30	0x3e52f836	0.20602497
31	0x3e54c742	0.20779136
32	0x3cbc6cfa	0.023001183
33	0x3eba0dd1	0.36338666
34	0x3e7b7e82	0.24559978
35	0x3efbea3d	0.49202147
36	0x3ea341e9	0.31886223
37	0xbdb2de97	-0.08733862
38	0x3e9c8b8d	0.3057522
39	0x3ee35eb3	0.44408187
40	0x3d493392	0.049121447
41	0x3eafa69c	0.343068
42	0xbe8397e0	-0.2570181
43	0x3ed606b1	0.4180198
44	0xbdc89553	-0.09794106
45	0x3eae1275	0.33998457
46	0x3ea1e586	0.31620425
47	0x3ec21783	0.37908563
48	0x3f06093a	0.5235783
49	0xbd9a15a0	-0.07523656
50	0x3ebf8a40	0.37410164
51	0xbe6ff442	-0.2343302
52	0x3d62d654	0.05538018
53	0x3e9ad627	0.3024151
54	0x3dc12d80	0.094325066
55	0x3e5c02dc	0.21485466
56	0x3e00c535	0.12575229
57	0xbcffac5c	-0.031210117
58	0x3eaf20da	0.3420475
59	0x3e9df0b3	0.308477
60	0xbca2392b	-0.01980265
61	0x3ec99cb5	0.3937737
62	0x3ec1c486	0.37845248
63	0xbd75af9c	-0.059981927
64	0x3e9ac994	0.30231917
65	0x3ec94a04	0.39314282
66	0x3f183748	0.5945935
67	0x3e901acc	0.28145444
68	0x3d6cb7c7	0.05779245
69	0x3e325e9a	0.174189
70	0xbdae77fe	-0.085189804
71	0x3e9463cc	0.2898239
72	0xbd43e95e	-0.04782998
73	0x3e6213e6	0.22077903
74	0xbe5430b6	-0.20721707
75	0xbe8d9615	-0.27653566
76	0x3eea0e1b	0.45713887
77	0x3e881488	0.26578164
78	0xbd0bcba6	-0.03412976
79	0x3e9637db	0.2933949
80	0x3f22164e	0.63315284
81	0x3f25dde9	0.64791733
82	0xbbd38127	-0.006454605
83	0xbec1d780	-0.37859726
84	0xbe699e4e	-0.22814295
85	0x3f27652a	0.6538874
86	0x3ee65ebf	0.4499416
87	0x3e74984f	0.23886226
88	0x3fb231b5	1.3921419
89	0x3ebbe0b1	0.36694863
90	0xbe61d66a	-0.22054449
91	0x3e67124e	0.22565576
92	0xbe943bf1	-0.28951982
93	0x4021cf76	2.5282874
94	0xbec09804	-0.3761598
95	0x3f0e023a	0.5547215
96	0xbec4cf9e	-0.3843965
97	0x3d39d950	0.04537326
98	0x3ed9e729	0.42559174
99	0xbe611349	-0.21980013
100	0x3f18b2da	0.59647906
101	0x3eaf746d	0.34268513
102	0x3e5103a8	0.20411551
103	0x3e7da862	0.24771264
104	0xbd4a4554	-0.049382523
105	0x3f644a8f	0.8917627
106	0x3e8184f2	0.25296742
107	0xbd835838	-0.06413311
108	0x3d477797	0.048698034
109	0x3bfd4e6e	0.007730297
110	0x3d87714d	0.06613407
111	0xbcab3693	-0.020900046
112	0xbe9d62fd	-0.30739585
113	0x3e81e758	0.25371814
114	0xbe4c4ac3	-0.19950394
115	0x3ec5b7e8	0.38616872
116	0xbc96325b	-0.018334558
117	0x3f14d08f	0.58130735
118	0xbd956318	-0.07294291
119	0x3e6e570b	0.23275392
120	0xbd6c4102	-0.057679184
121	0xbe87b853	-0.26507816
122	0xbea0e148	-0.31421876
123	0xbde0582b	-0.10954317
124	0xbc5eeafd	-0.01360583
125	0x3e826689	0.25468853
126	0x3e906f15	0.2820975
127	0x3f0052be	0.50126255
128	0x3d53998d	0.05166011
129	0xbe810e40	-0.25206184
130	0x3f00d9d8	0.50332403
131	0xbec4c853	-0.38434085
132	0x3eb5eab3	0.35530624
133	0xbddad5f2	-0.10685338
134	0x3ec1e47f	0.3786964
135	0x3e97efb3	0.29675063
136	0x3dd9fa89	0.10643489
137	0x3f45fdf7	0.77340645
138	0x3ee2f235	0.44325414
139	0xbe4cb973	-0.19992618
140	0xbe824d2a	-0.25449497
141	0x3e6eedee	0.2333295
142	0x3efad4d4	0.489905
143	0x3ea58252	0.3232599
144	0x3e8f4003	0.27978525
145	0x3e96125e	0.29310888
146	0xbe4857ac	-0.19564694
147	0x3ed5479d	0.416562
148	0x3de436c4	0.11143258
149	0xbc7a63ec	-0.015282612
150	0x3d142d40	0.036175966
151	0xbe898203	-0.26857004
152	0xbe9ac84a	-0.30230933
153	0x3f02ae72	0.5104743
154	0x3e5cbdb0	0.21556735
155	0xbcaf2c98	-0.021383569
156	0xbb421d40	-0.0029619485
157	0x4028ae55	2.6356404
158	0x3e613f51	0.2199681
159	0x3e6e3daf	0.23265718
160	0x3dc57dcd	0.09643135
161	0x3d354727	0.04425731
162	0x3ed71e08	0.420151
163	0x3eec6f6d	0.4617876
164	0x3f0b44d2	0.54401886
165	0xbde3a1b9	-0.111148305
166	0x3ef95c8d	0.48703423
167	0x3f69ea35	0.91372997
168	0xbdae4b9a	-0.085105136
169	0x3d81d1ef	0.0633887
170	0xbea36559	-0.3191326
171	0xbdf53545	-0.11973051
172	0x3d7cd594	0.06172712
173	0xbe3b8ff1	-0.18316628
174	0xbc2628c0	-0.0101415515
175	0x3ed5acdd	0.41733447
176	0x3e0cc8a7	0.13748418
177	0xbdd4253a	-0.10358663
178	0x3e82c0ff	0.2553787
179	0x3eb63e9a	0.35594636
180	0x3e9b59d0	0.3034196
181	0x3eb9752c	0.36222208
182	0x3f6548a6	0.8956398
183	0x3d5fb7f3	0.054618787
184	0xbb66c265	-0.0035211083
185	0x3d86fd78	0.06591314
186	0x3ccb6fbf	0.024833558
187	0xbd4374ba	-0.04771874
188	0xbe10c86a	-0.14138952
189	0x3e32e0df	0.17468594
190	0x3edc2586	0.42997378
191	0x3e8850e8	0.26624227
192	0xbe5795a3	-0.21053176
193	0x3db797a2	0.089644685
194	0x3e34dfea	0.17663541
195	0x3da79a7c	0.081837624
196	0x3f048b8f	0.5177545
197	0x3ef87ed2	0.48534256
198	0xbe6d1e86	-0.23156175
199	0xbea4e780	-0.3220787
200	0x3f40ac00	0.7526245
201	0x3efec7cd	0.4976181
202	0xbe052f75	-0.13006385
203	0x3b9d1aa2	0.0047944346
204	0x3edc80e3	0.43067083
205	0xbd7a3a34	-0.061090663
206	0x3ee45e43	0.44603166
207	0x3ebf3f47	0.37352964
208	0x3f62cd1f	0.8859424
209	0x3f682408	0.9067998
210	0xbe980ae0	-0.29695797
211	0x3d728d2f	0.059216674
212	0xbe9d498d	-0.30720177
213	0xbe61d3b9	-0.22053422
214	0x3f37fd4a	0.71870863
215	0x3e6f1395	0.23347314
216	0xbdaec04e	-0.08532773
217	0x3e4bdd74	0.19908696
218	0xbea4465f	-0.3208494
219	0x3dbd37de	0.092391714
220	0xbca9de06	-0.020735752
221	0x400d87d0	2.2114143
222	0x3c119d11	0.008887545
223	0x3f333477	0.7000193
224	0xbe74c88a	-0.23904625
225	0x3d655bf4	0.055995896
226	0x3e1f94b8	0.15584075
227	0x3e89187d	0.26776496
228	0x3e12fd27	0.14354382
229	0xbda3606a	-0.07977374
230	0x3d9788bf	0.07399129
231	0x3f2c3e38	0.6728244
232	0x3d764448	0.06012371
233	0xbd5775ca	-0.052602567
234	0x3e7f742b	0.24946658
235	0xbe0e1f3d	-0.13879104
236	0xbe945fdd	-0.28979388
237	0x3c9b03bf	0.018922685
238	0xbcb7a5d2	-0.022417936
239	0xbd93ac47	-0.07210594
240	0xbd6a867c	-0.05725716
241	0xbe0eec3a	-0.13957301
242	0xbbdaeef8	-0.0066813193
243	0x3ecbe745	0.39824882
244	0x3f051f38	0.5200076
245	0x3f200ce3	0.62519664
246	0xbec8a568	-0.39188695
247	0x3e054ebe	0.13018319
248	0x3f58fbde	0.8475932
249	0x3ed95cb4	0.4245354
250	0x3d269db7	0.040677752
251	0xbc999b56	-0.018750828
252	0x3d86f1a4	0.06589058
253	0x3c94d07a	0.018165816
254	0x3d41ce0c	0.047315642
255	0x3e87c40f	0.26516768

fc3.bias f4 [4]
0	0x40eabdd4	7.3356724
1	0x40eddf0b	7.433477
2	0x40e72f0a	7.224492
3	0x40eacdea	7.337636
