models/eye_of_cthulhu.pth (torch, 37792 bytes, 6 tensors)

fc1.weight f4 [128, 2]
0	0xbe882ae2	-0.26595217
1	0xbe6857a8	-0.22689688
2	0xbb7aeeb3	-0.0038289248
3	0xbf0bc1cd	-0.5459259
4	0xbf65baac	-0.89737964
5	0xbe90e639	-0.28300646
6	0xbe1b7206	-0.15180215
7	0xbec12d47	-0.37729856
8	0xbf2b0e1e	-0.66818416
9	0xbcabf34e	-0.02099004
10	0xbd14d49b	-0.03633557
11	0xc00764cb	-2.115527
12	0xbe639038	-0.22222984
13	0xbdf871e9	-0.12131102
14	0xbe88aec4	-0.26695836
15	0xbd98f9e2	-0.07469536
16	0xbc5465b3	-0.0129637
17	0xbf1e7980	-0.61904144
18	0xbfa5ed65	-1.2963072
19	0xbcf4992c	-0.029858194
20	0xbf498756	-0.7872213
21	0xbe0f7d6d	-0.1401269
22	0xbf0d0758	-0.5508933
23	0xbdbe71bd	-0.092990376
24	0xbf375340	-0.71611404
25	0xbda87ec6	-0.08227305
26	0xbff0c582	-1.8810275
27	0xbdd24274	-0.10266581
28	0xbeca3862	-0.39496142
29	0xbc32dd90	-0.010917082
30	0xbe6ae80c	-0.22940081
31	0xbe3d2440	-0.1847086
32	0xbda39422	-0.079872385
33	0xbfb72593	-1.4308342
34	0xbdb2d8ea	-0.08732779
35	0xbdd87258	-0.10568684
36	0xbb3e6ca9	-0.0029056466
37	0xbe83ea78	-0.25764823
38	0xbdabe1bb	-0.08392664
39	0xbe15e41c	-0.14637798
40	0xbec94d25	-0.3931667
41	0xbd100a45	-0.035166044
42	0xbe91a5a6	-0.28446692
43	0xbe01d61b	-0.12679331
44	0xbbbd1abe	-0.00577101
45	0xbd485d41	-0.04891706
46	0xbf6aaa22	-0.9166585
47	0xbe9ab872	-0.30218846
48	0xbda44bce	-0.08022271
49	0xbf23410e	-0.6377114
50	0xbefa5e1c	-0.48899925
51	0xbcba679d	-0.022754485
52	0xbd533ab2	-0.051569648
53	0xbd28799c	-0.0411316
54	0xbe92e3bf	-0.2868938
55	0xbe241d6f	-0.16026853
56	0xbf4c6127	-0.7983574
57	0xbcc537b5	-0.024074415
58	0xbe2c175d	-0.16805787
59	0xbd7f9853	-0.062401127
60	0xbd567b5f	-0.05236375
61	0xbe8dd8a2	-0.2770434
62	0xbed52977	-0.41633198
63	0xbe8e7311	-0.27822164
64	0xbba01459	-0.004885238
65	0xbf48b0d4	-0.7839482
66	0xbe459950	-0.19296765
67	0xbf8297d4	-1.0202584
68	0xbc1d167a	-0.009587878
69	0xbecaa7fa	-0.3958128
70	0xbc1e98cc	-0.009679984
71	0xbf307d6b	-0.6894137
72	0xbe8c5791	-0.27410558
73	0xbdc440e8	-0.095826924
74	0xbeb5f24c	-0.3553642
75	0xbe50561a	-0.20345345
76	0xbc7371c2	-0.014858665
77	0xbdbcc139	-0.09216542
78	0xbe262ceb	-0.16228072
79	0xbe5208f4	-0.20511228
80	0xbea5451e	-0.32279295
81	0xbde799ce	-0.11308633
82	0xbed21665	-0.4103271
83	0xbd85049a	-0.06495018
84	0xbf8606e7	-1.0470856
85	0xbe452dfa	-0.1925582
86	0xbcd7e9e2	-0.026356641
87	0xbddb0dd6	-0.10695998
88	0xbf36f4d5	-0.71467334
89	0xbccc0590	-0.024904996
90	0xbd88eeaf	-0.0668615
91	0xbe92377f	-0.28557965
92	0xbcf16ef6	-0.029471856
93	0xbe87c5ff	-0.26518247
94	0xbd42de5b	-0.047575336
95	0x3be4f707	0.0069874558
96	0xbf2b3d92	-0.66890824
97	0xbe248d25	-0.16069467
98	0xbd54f3ed	-0.05199044
99	0xbf5a89a9	-0.853663
100	0xbbd54960	-0.006508991
101	0xbed7909d	-0.4210252
102	0xbf0915ed	-0.5354908
103	0xbd190740	-0.03736043
104	0xbe15e9a2	-0.14639905
105	0xbb88ef21	-0.004178897
106	0xbecff221	-0.40614417
107	0xbe4b2e26	-0.19841823
108	0xbf2f8114	-0.6855633
109	0xbd87a070	-0.06622398
110	0xbf6bf35f	-0.9216823
111	0xbd69c368	-0.05707112
112	0xbcb4e714	-0.022082843
113	0xbda6b045	-0.081390895
114	0xbeef187c	-0.46698368
115	0xbdd30f7f	-0.1030569
116	0xbd1455bd	-0.03621458
117	0x38ced67a	9.862795e-05
118	0xbac036ce	-0.001466477
119	0xbd15f5c3	-0.03661133
120	0xbdf4e1c8	-0.11957127
121	0xbd0b6ef5	-0.034041364
122	0xbda57e1c	-0.08080694
123	0xbd958303	-0.07300379
124	0xbf022aab	-0.50846356
125	0xbb206b50	-0.0024478026
126	0xbe8a5852	-0.27020508
127	0xbca65135	-0.020302394
128	0xbeeaf827	-0.4589245
129	0xbea29cd9	-0.3176029
130	0x3a15e6b3	0.0005718276
131	0xbf12c268	-0.5732789
132	0xbebe4afb	-0.3716658
133	0xbe19c57a	-0.15016738
134	0xbdd4edd1	-0.103969224
135	0xbe47e121	-0.19519474
136	0x3bad3dbe	0.0052869013
137	0xc080a221	-4.019791
138	0xbf13509c	-0.57544875
139	0xbdaf69b1	-0.08565081
140	0xbf05e3bb	-0.52300614
141	0xbb8305cb	-0.0039984933
142	0xbf8d1bdc	-1.1024127
143	0xbdd6ac39	-0.104820676
144	0xbf324bdf	-0.6964702
145	0xbdb9ab91	-0.09065927
146	0xbd8c2503	-0.06842997
147	0xbab5d4b0	-0.001387259
148	0xbe039420	-0.12849474
149	0xbe94d03a	-0.29065114
150	0xbe4e2399	-0.20130767
151	0xbe1b7ca7	-0.1518427
152	0xbf710367	-0.94145817
153	0xbe4ab3b7	-0.19795118
154	0xbeab89cd	-0.3350357
155	0xbea2171b	-0.31658253
156	0xbdf43dd8	-0.11925858
157	0xbc8c4d0b	-0.01712658
158	0xbf209ea7	-0.62742084
159	0xbde96d30	-0.11397779
160	0xbe81cd33	-0.25351867
161	0xbe153289	-0.14570059
162	0xbecd658a	-0.4011653
163	0xbe5eef8c	-0.21771067
164	0xbdfb0d2f	-0.12258374
165	0xbe8a3049	-0.26989964
166	0xbf5e0e45	-0.86740524
167	0xbd10c574	-0.035344556
168	0xbc18cb14	-0.009325761
169	0xbf120109	-0.5703283
170	0xbe9c47f4	-0.30523646
171	0xbe1f132c	-0.15534657
172	0xbc403b30	-0.011732861
173	0xbe2051b8	-0.15656173
174	0xbea04b06	-0.31307238
175	0xbeddca30	-0.4331832
176	0x3ad218fd	0.0016029176
177	0xbe5e3358	-0.21699274
178	0xbd75cfa2	-0.060012467
179	0xbd1e8934	-0.038705066
180	0xbb89b27e	-0.004202186
181	0xbd85cbb8	-0.06532997
182	0xbeff3a95	-0.49849382
183	0xbddb6975	-0.10713474
184	0xbf196746	-0.5992321
185	0xbdd10dfc	-0.102077454
186	0xbe988f8c	-0.29797018
187	0xbefb930e	-0.4913563
188	0xbd20b18a	-0.039231814
189	0xbc975a7f	-0.01847577
190	0xbdecaf61	-0.11556888
191	0xbf0ee7f1	-0.55822664
192	0xbf00b6ad	-0.5027874
193	0xbb9441cb	-0.0045244447
194	0xbc57e269	-0.013176539
195	0xc007326a	-2.112452
196	0xbf8bad4a	-1.0912259
197	0xbd957ffc	-0.07299802
198	0xbf2fdec5	-0.68699294
199	0xbdb25b0a	-0.087087706
200	0xbbebc8fb	-0.0071955896
201	0xbeedbba5	-0.46432224
202	0xbf334644	-0.7002909
203	0xbd6c48fc	-0.05768679
204	0xbd731487	-0.05934575
205	0xc03d24fb	-2.955382
206	0xbca1fe0b	-0.019774457
207	0xbe94ef60	-0.2908888
208	0xbc796c2b	-0.015223543
209	0xbdbb8070	-0.09155357
210	0xb805f623	-3.1938904e-05
211	0xbe79e303	-0.24403004
212	0xbf91fdf6	-1.1405628
213	0xbdd7769d	-0.105206706
214	0xbe01096f	-0.12601255
215	0xbbe5fed3	-0.007018903
216	0xbd4c00df	-0.04980552
217	0xbd1078cd	-0.035271455
218	0xbc932ff4	-0.017967202
219	0xbdc81eba	-0.097714856
220	0xbf10b240	-0.5652199
221	0xbe0b0b20	-0.13578463
222	0xbc73afae	-0.014873428
223	0xbdcebf85	-0.10095123
224	0xbe78178e	-0.24227735
225	0xbd315b61	-0.043300036
226	0xbf8401a6	-1.0313003
227	0xbe439187	-0.19098483
228	0xbda85521	-0.08219362
229	0xbee28d36	-0.4424836
230	0xbc6c4b88	-0.014422305
231	0xbe24a3b5	-0.16078074
232	0xbf072d11	-0.5280314
233	0xbe59a3bb	-0.21253864
234	0xbe9a4b23	-0.3013545
235	0xbf28c8a1	-0.65931135
236	0xbe0c59c3	-0.13706116
237	0xbe34fb11	-0.17673899
238	0xbf9e1982	-1.2351534
239	0xbe8a256d	-0.2698168
240	0xbbe68dd8	-0.007035952
241	0xbe5cef1b	-0.21575586
242	0xbdbc7166	-0.092013165
243	0xbef27aad	-0.4735922
244	0xbd638869	-0.055550013
245	0xbed89f1f	-0.423089
246	0xbe528b79	-0.20561017
247	0xbeaf2eb3	-0.34215316
248	0xbf053f68	-0.52049875
249	0xbdc9f087	-0.0986033
250	0xbc196c58	-0.00936421
251	0xbf113956	-0.5672811
252	0xbb8b3e34	-0.0042493585
253	0xbe99db49	-0.30050114
254	0xbefd0a40	-0.49421883
255	0xbddfbc21	-0.109245546

fc1.bias f4 [128]
0	0xbf229ccc	-0.63520503
1	0xbf20fba5	-0.6288398
2	0xbf785f4f	-0.9702043
3	0xbf005580	-0.5013046
4	0xbea295aa	-0.3175481
5	0xbed4d114	-0.41565764
6	0xbed4b027	-0.41540644
7	0x3c9021db	0.017594269
8	0xbeb75b54	-0.35811865
9	0xbf51f5f1	-0.820159
10	0xbec61775	-0.3868977
11	0xbd9d5653	-0.07682481
12	0xbf07bc0c	-0.5302131
13	0xbf13ae89	-0.57688195
14	0xbf3f3332	-0.7468749
15	0xbee32829	-0.44366577
16	0xbf44c8b9	-0.7686878
17	0xbe61d66d	-0.22054453
18	0xbe878f1b	-0.26476368
19	0xbea5617e	-0.32300943
20	0xbf129107	-0.57252544
21	0xbee22f52	-0.44176728
22	0xbd998adc	-0.074971884
23	0xbf27bff9	-0.655273
24	0xbe241aac	-0.160258
25	0x3e8ae0a6	0.27124518
26	0x3e2997ea	0.16561857
27	0xbf2158ea	-0.630263
28	0xbeebc601	-0.46049502
29	0x3ed29a94	0.4113356
30	0xbeacbf22	-0.33739573
31	0xbf393f40	-0.72362137
32	0xbecadef8	-0.39623237
33	0xbfa8dffc	-1.3193355
34	0xbf2dab2a	-0.678393
35	0xbf373010	-0.7155771
36	0xbeedfb70	-0.46480894
37	0xbf4fb4be	-0.81135166
38	0xbe93a53e	-0.28837007
39	0xbec9c90c	-0.394112
40	0xbf4f0a06	-0.8087467
41	0x3ea1080b	0.3145145
42	0xbeafeed6	-0.34361905
43	0xbe5684c5	-0.20949085
44	0xbf3ecd1a	-0.7453171
45	0xbeca4298	-0.39503932
46	0xbebeb19b	-0.37244877
47	0xbffffcac	-1.9998984
48	0xbf70cb1f	-0.9405994
49	0xbe67e54b	-0.22646062
50	0xbeee1f7e	-0.46508402
51	0xbe478c4c	-0.19487113
52	0xbf8b38ac	-1.087667
53	0xbee831ab	-0.45350394
54	0xbf59378e	-0.84850395
55	0xbec7b616	-0.39006108
56	0x3e53596f	0.20639585
57	0xbf69a12f	-0.9126157
58	0xbd5e487c	-0.054268345
59	0xbd3dc0e4	-0.046326533
60	0x3f416616	0.75546396
61	0xbf55d705	-0.8353122
62	0x3ec27055	0.37976328
63	0x3eaf040d	0.34182778
64	0x3e83db8e	0.25753444
65	0xbf16c758	-0.58897924
66	0xbeaed81d	-0.34149256
67	0xbea80e08	-0.32823205
68	0xbfac9af3	-1.3484787
69	0xbca0fd91	-0.01965216
70	0xbe42f2df	-0.1903796
71	0xbf0d7913	-0.5526287
72	0xbf82b08e	-1.021013
73	0xbe069779	-0.1314372
74	0xbd63eb7a	-0.05564449
75	0xbf2949d7	-0.66128296
76	0xbfb4ef64	-1.4135556
77	0xbf2e7eff	-0.6816253
78	0xbe7a91a1	-0.24469616
79	0xbed56fe9	-0.41686943
80	0xbebee765	-0.37285915
81	0xbfa71a4f	-1.3054904
82	0x3eb510d5	0.35364404
83	0xbe97fe9d	-0.29686442
84	0xbf207d5c	-0.62691283
85	0xbf9b3c5d	-1.2127796
86	0xbece1868	-0.40252995
87	0xbf46548e	-0.7747277
88	0xbf58137a	-0.8440472
89	0xbdfdcef0	-0.12392986
90	0xbeb1536d	-0.3463396
91	0xbf6dc9bf	-0.92885965
92	0xbe656d45	-0.22404964
93	0x3f490afd	0.7853239
94	0x3ef0985f	0.4699125
95	0xbf7df224	-0.991976
96	0xbf3f40c9	-0.7470823
97	0xbb98a1e9	-0.004657973
98	0xbccd22ae	-0.02504095
99	0xbf677ffc	-0.90429664
100	0xbdeddd19	-0.11614437
101	0x3ddc1722	0.107466
102	0xbf3ce938	-0.73793364
103	0xbea6f711	-0.32610372
104	0x3f001adc	0.50040984
105	0xbe8158f0	-0.25263166
106	0xbe8004f2	-0.25003773
107	0xbe87562c	-0.2643293
108	0x3e9ba51f	0.30399415
109	0xbf448b44	-0.76775
110	0xbf9ac79c	-1.2092166
111	0x3f25f52d	0.64827234
112	0xbe9732c2	-0.29530913
113	0xbed0f7a1	-0.40813926
114	0xbf3647f4	-0.7120354
115	0xbe53731f	-0.20649384
116	0x3ea7640f	0.32693526
117	0xbf45eaa8	-0.7731118
118	0x3bf34714	0.0074242447
119	0xbfc497fd	-1.5358883
120	0x3da8d216	0.08243196
121	0x3e07353e	0.13203904
122	0xbf0c4384	-0.5479052
123	0xbf103e05	-0.56344634
124	0xbf57cfb8	-0.8430133
125	0x3dc9cfe9	0.09854109
126	0x3d8587b0	0.06520021
127	0x3d9e693c	0.077349156

fc2.weight f4 [64, 128]
0	0x3af08f00	0.0018353164
1	0xbceccb39	-0.028905498
2	0xbd794419	-0.06085596
3	0x3d048822	0.03235639
4	0xbc4b97a2	-0.012426289
5	0x3cb0938b	0.021554729
6	0x3c81970a	0.015819091
7	0xbd92cd1c	-0.07168028
8	0x3cc48f77	0.02399419
9	0xbd96893a	-0.07350393
10	0xbd90ab71	-0.0706395
11	0x3d92ae35	0.071621336
12	0xbcb637a7	-0.022243334
13	0xbd3bd926	-0.045861386
14	0xbcbf98dc	-0.023388319
15	0xbd460d13	-0.048352312
16	0xbed8b64e	-0.42326587
17	0xbb0ec650	-0.0021785684
18	0xbd9b8ec8	-0.07595593
19	0xbeb57e22	-0.35447794
20	0x3c999166	0.01874609
21	0xbdf4d3c2	-0.11954452
22	0xbd65e967	-0.056130793
23	0xbd5cb5b3	-0.05388422
24	0xbebe4efc	-0.37169635
25	0xbd87402b	-0.06604036
26	0xbb355940	-0.0027671605
27	0xbc7b1726	-0.015325343
28	0xbd54060b	-0.051763576
29	0x3d0354e8	0.032063395
30	0xbd83d587	-0.064372115
31	0x3c14e914	0.009088773
32	0x3b69a240	0.0035649687
33	0xbec6562a	-0.38737613
34	0xbd72e6ae	-0.059302025
35	0xbdce042b	-0.10059389
36	0x3d0ece9c	0.034865007
37	0x3d2fd5ce	0.04292851
38	0x3d302752	0.04300625
39	0xbdcaa281	-0.098942764
40	0xbd66408b	-0.056213897
41	0xbd11becc	-0.03558235
42	0xbd133ed5	-0.035948593
43	0x3d5fd7da	0.05464921
44	0xbd30ed93	-0.04319532
45	0xbdaad1e5	-0.083408155
46	0xbca4dfaf	-0.020126192
47	0xbe7076b7	-0.23482786
48	0xbd2df55d	-0.042470325
49	0xbe925d68	-0.28586888
50	0x3cc440f4	0.023956753
51	0x3ca8d48f	0.020609168
52	0xbf0f8f77	-0.56078285
53	0xbd551255	-0.052019436
54	0xbdbffa7e	-0.093739495
55	0xbdd6bb87	-0.10484987
56	0xbebf4055	-0.3735377
57	0x3d9c2a77	0.07625287
58	0x3b8169d1	0.003949382
59	0xbdcd7784	-0.100325614
60	0x3d82d0ef	0.06387507
61	0xbcf3f24c	-0.029778622
62	0xbd645944	-0.055749193
63	0xbdaa900e	-0.083282575
64	0xbd9cc653	-0.07655015
65	0x3bdb9bf0	0.006701939
66	0xbd723ed2	-0.05914194
67	0xbd9af55c	-0.0756633
68	0xbe7a475f	-0.24441288
69	0xbcfc5dbf	-0.03080642
70	0xbdd22e35	-0.102627195
71	0xbd848445	-0.06470541
72	0xbd96f495	-0.07370869
73	0xbdc4af5a	-0.09603758
74	0xbe4b8dfc	-0.19878381
75	0xbd4881b8	-0.048951834
76	0x3d77537a	0.060382344
77	0x3d7bcbd6	0.06147369
78	0xbd472dec	-0.04862778
79	0xbd1e4184	-0.0386367
80	0xbdf1ed1d	-0.11812804
81	0xbeb9da3d	-0.36299315
82	0xbee16453	-0.44021854
83	0xbd7b0552	-0.06128437
84	0xbd5f7d4d	-0.054562856
85	0x3d920cdd	0.0713136
86	0xbd0977dd	-0.033561576
87	0x3b987ea7	0.00465377
88	0xbd3af64a	-0.045645036
89	0xbdc0379c	-0.09385607
90	0x3d85f217	0.065403156
91	0x3d17d0f6	0.037064515
92	0x3dab2a5d	0.083576895
93	0xbc2abc5d	-0.010420886
94	0xbf0f63e7	-0.56011814
95	0xbebebcc9	-0.37253407
96	0x3d0ea9d2	0.034829922
97	0xbf096bc3	-0.53680056
98	0xbd2460b9	-0.040131304
99	0xbdab02f1	-0.083501704
100	0xbd26022a	-0.040529408
101	0x3db4436f	0.088019244
102	0xbeaaf1c9	-0.33387592
103	0xbe08bcb5	-0.13353236
104	0xbe00ba82	-0.12571147
105	0xbd897995	-0.06712643
106	0xbdfec9fe	-0.12440871
107	0xbf0e81fa	-0.5566708
108	0xbd92a3de	-0.071601614
109	0x3d5af5ee	0.053457193
110	0xbdae011a	-0.08496304
111	0x3c24859b	0.01004162
112	0x3cb790b6	0.02240787
113	0xbd53ed9e	-0.05174028
114	0xbe5d8232	-0.21631697
115	0xbe741350	-0.23835492
116	0x3c06d640	0.008229792
117	0xbcd288ab	-0.025699934
118	0xbde6ec6d	-0.112755634
119	0xbd1f375c	-0.038871154
120	0xbdca77f8	-0.098861635
121	0xbeae20ee	-0.34009498
122	0xbdecc1de	-0.11560415
123	0xbe1775a6	-0.14790973
124	0x3d836a99	0.06416816
125	0xbda72e5e	-0.08163141
126	0xbd8a8391	-0.067633756
127	0xbd94fba4	-0.07274559
128	0x3d48119a	0.04884491
129	0xbdbeb045	-0.093109645
130	0xbceb4f38	-0.028724298
131	0xbcf0352e	-0.029322233
132	0xbe0e484f	-0.13894771
133	0xbd21955e	-0.03944909
134	0xbbfd2156	-0.007724921
135	0xbdad59d3	-0.08464398
136	0x3d419db6	0.047269545
137	0xbd94e07d	-0.0726938
138	0x3d026fb6	0.031844817
139	0xbd439ba1	-0.04775584
140	0xbe19f062	-0.15033105
141	0xbd1a200e	-0.037628226
142	0xbdb7af8a	-0.08969028
143	0xbd31728e	-0.04332214
144	0xbd0d67c8	-0.0345228
145	0xbb54e0e2	-0.0032482673
146	0xbe1f1cf9	-0.15538396
147	0x3b627947	0.003455715
148	0xbd27f2e5	-0.041003127
149	0xbe09227b	-0.1339206
150	0xbdbce7ea	-0.092239216
151	0xbddb311c	-0.10702726
152	0xbd39c662	-0.04535521
153	0xbd8c0947	-0.06837707
154	0xbdbbfcf3	-0.091791056
155	0xbd331f8a	-0.04373125
156	0xbce65022	-0.028114382
157	0xbdbbc94b	-0.09169253
158	0xbdc5f40e	-0.0966569
159	0xbdb6b705	-0.08921627
160	0xbd349b00	-0.044093132
161	0xbb2780ef	-0.0025559028
162	0xbdb98c15	-0.09059922
163	0x3d4d180f	0.050071772
164	0xbd6018fa	-0.05471132
165	0x3c97a53e	0.01851141
166	0x3cf79e10	0.030226737
167	0xbd80ce68	-0.06289369
168	0x3dab0475	0.083504595
169	0xbdecfad3	-0.115712784
170	0xbc5a9b4b	-0.013342689
171	0xbda39566	-0.0798748
172	0xbe05f6a9	-0.13082375
173	0xbe1bd448	-0.15217698
174	0xbdb75c59	-0.08953161
175	0xbdd511e0	-0.104038
176	0xbc4525ad	-0.012032908
177	0xbe167b86	-0.14695558
178	0xbd1df80f	-0.038566645
179	0x3c92764c	0.017878674
180	0x3c28a9e7	0.010294414
181	0xbe1f5ab5	-0.15561946
182	0xbd80dcbc	-0.06292102
183	0xbddfc497	-0.109261684
184	0xbdce7070	-0.100800395
185	0xbddf1704	-0.10893062
186	0x3c14f6c9	0.009092041
187	0xbe136795	-0.14394982
188	0x3be62898	0.007023882
189	0xbd6ab84c	-0.057304665
190	0xbdb8b2cd	-0.090184785
191	0xbdb65556	-0.08902995
192	0xbd036651	-0.03208
193	0xbe12dc15	-0.14341767
194	0xbe0f7706	-0.14010248
195	0xbe22acd9	-0.15886249
196	0xbcd7cb3a	-0.026342023
197	0xbd88313a	-0.06650014
198	0xbda8c35e	-0.08240388
199	0xbe141e93	-0.14464788
200	0x3aa705c4	0.0012742807
201	0xbde2e256	-0.110783264
202	0xbd61324f	-0.05497962
203	0xbd735405	-0.0594063
204	0xbc0b1512	-0.00848891
205	0xbdb9d3a7	-0.090735726
206	0x3aeb854d	0.0017968804
207	0xbdf1538e	-0.11783515
208	0xbcfe610e	-0.031052139
209	0xbd8f574c	-0.069990724
210	0x3bf34524	0.0074240137
211	0xbd6df40a	-0.058094062
212	0xbb91c630	-0.0044486746
213	0xbdd47e57	-0.1037566
214	0xbd8ddcb4	-0.069268614
215	0xbd7ad81a	-0.061241247
216	0x3c2be3ac	0.010491293
217	0xbd4528df	-0.04813468
218	0xbc1d9495	-0.009617944
219	0xbdd58c6d	-0.10427175
220	0xbdc1f834	-0.09471169
221	0xbd998c3f	-0.07497453
222	0xbe14246d	-0.1446702
223	0x3cfa6fb4	0.030570842
224	0xb9d06bf0	-0.0003975327
225	0xbe89e693	-0.26933727
226	0x3cf1ee2c	0.029532515
227	0x3e10a3e6	0.14125022
228	0x3c0cf2aa	0.0086027775
229	0xbdb468f2	-0.08809079
230	0xbe1c736b	-0.15278403
231	0xbd2423d7	-0.040073242
232	0xbdae8e6f	-0.08523261
233	0xbe1acb74	-0.15116674
234	0xbc625d15	-0.013816138
235	0xbc27449f	-0.010209232
236	0xbdb8ac1d	-0.09017203
237	0xbdd50b9a	-0.104026034
238	0xbd4fc9b4	-0.05072947
239	0xbe05bcba	-0.13060275
240	0xbdd43aea	-0.103627995
241	0x3c8aa35b	0.016923597
242	0xbe146f2a	-0.1449553
243	0xbce11fc0	-0.02748096
244	0xbd13391d	-0.03594314
245	0xbd07b082	-0.033127315
246	0xbc8341b8	-0.016022548
247	0xbcb9a942	-0.022663716
248	0xbda217e7	-0.07914715
249	0xbdb6a068	-0.08917314
250	0xbcbf9495	-0.02338628
251	0xbd46265b	-0.048376422
252	0x3b0f681e	0.0021882127
253	0xbd6de715	-0.058081705
254	0x3d4e1408	0.050312072
255	0xbd5664a7	-0.052342083

fc2.bias f4 [64]
0	0xbe84fc6b	-0.2597383
1	0xbdd86dca	-0.105678156
2	0xbdb6d19e	-0.089267
3	0xbf478057	-0.77930206
4	0xbd1c54f4	-0.038166955
5	0xbecb7152	-0.39734894
6	0xbf262fef	-0.6491689
7	0xbdd74c98	-0.10512656
8	0xbe8f0d69	-0.2793992
9	0xbecf523a	-0.4049242
10	0xbe8fae0c	-0.28062475
11	0xbf0a593b	-0.54042405
12	0xbf465097	-0.7746672
13	0xbe2e4670	-0.17019057
14	0xbc41af96	-0.011821648
15	0xbe39a8c7	-0.1813079
16	0xbeb965fb	-0.36210617
17	0xbe5933e5	-0.21211202
18	0xbd910459	-0.070809074
19	0xbeba9899	-0.36444548
20	0xbedcc877	-0.43121693
21	0xbeb2de33	-0.3493515
22	0xbf6b7ea8	-0.9199014
23	0xbec8275c	-0.3909253
24	0xbef4479f	-0.47710893
25	0xbdd66af4	-0.104696184
26	0xbed339fb	-0.41255173
27	0xbeace94e	-0.33771747
28	0xbe9f8d03	-0.3116227
29	0x400759d1	2.114857
30	0xbf045fe0	-0.51708794
31	0xbe28e853	-0.16494875
32	0xbed6a561	-0.4192305
33	0xbe237566	-0.15962753
34	0xbf4743aa	-0.7783762
35	0xbee789b2	-0.4522224
36	0xbee80308	-0.45314813
37	0xbeb45dea	-0.352279
38	0xbf301211	-0.6877757
39	0xbebef852	-0.37298828
40	0xbf51d350	-0.8196306
41	0xbec44bb1	-0.38338998
42	0xbebdf250	-0.37098932
43	0xbe9e7c88	-0.30954385
44	0xbe5404a1	-0.20704891
45	0xbec276a2	-0.37981135
46	0xbf3c4757	-0.73546356
47	0xbdfbf73b	-0.12303015
48	0xbd2699a7	-0.040673878
49	0xbf092c9f	-0.5358371
50	0xbf8c4953	-1.0959877
51	0xbdf6a1f7	-0.12042611
52	0xbf8bf7f0	-1.093504
53	0xbf18d3c6	-0.5969814
54	0xbeb3a0f8	-0.35083747
55	0xbee8c7d1	-0.45464948
56	0xbf2d8b80	-0.67790985
57	0xbe36ef6e	-0.17864773
58	0xbf75c713	-0.9600689
59	0xbdcaa6a1	-0.09895063
60	0xbef6bf82	-0.48192984
61	0xbd23ab07	-0.039958026
62	0xbf7568cf	-0.9586305
63	0xbdfaf351	-0.1225344

fc3.weight f4 [4, 64]
0	0xbeb6f005	-0.35729995
1	0xbe34f14b	-0.17670171
2	0xbd3960b2	-0.04525823
3	0xbc806d29	-0.015677052
4	0x3d4a8f13	0.049452852
5	0xbbc67c35	-0.006057287
6	0xbe47a57d	-0.19496723
7	0xbd5b3a68	-0.053522497
8	0x3da6da8c	0.08147153
9	0x3e446b59	0.19181575
10	0x3daf2b8c	0.08553228
11	0xbe4ca778	-0.1998576
12	0x3d0c6db0	0.034284294
13	0x3df115f2	0.11771764
14	0xbeeee45c	-0.466586
15	0xbead0660	-0.33793926
16	0xbd805cfa	-0.06267734
17	0x3e0ea3e9	0.13929714
18	0xbe98345a	-0.2972744
19	0xbebf0dde	-0.37315267
20	0x3e54f3c9	0.20796122
21	0x3cac8d14	0.021063365
22	0xbdef3a7d	-0.11681078
23	0xbc52ad70	-0.012858734
24	0x3ead685a	0.33868676
25	0x3d50e8cf	0.051003274
26	0xbeb363dd	-0.35037127
27	0xbe242078	-0.16028011
28	0xbba97560	-0.005171463
29	0xbda996e4	-0.08280733
30	0x3da87508	0.08225447
31	0xbeae56bc	-0.34050548
32	0xbeb46234	-0.35231173
33	0x3db3ad0f	0.08773243
34	0xbda34534	-0.07972184
35	0xbe2f356c	-0.17110223
36	0xbde8fd1d	-0.113764025
37	0xbd8cc2ef	-0.06873118
38	0xbe0a4a53	-0.13504915
39	0xbaf554aa	-0.0018717248
40	0xbeb07a70	-0.34468412
41	0x3d89735c	0.06711456
42	0x3d9cc2ba	0.07654329
43	0xbd40c289	-0.047060523
44	0x3e14623f	0.14490603
45	0xbca5e692	-0.020251546
46	0xbdad35a7	-0.08457499
47	0xbea6de26	-0.3259136
48	0x3a4d9758	0.00078426814
49	0xbd325d54	-0.043546036
50	0x3dd08082	0.10180761
51	0xbd4f32b1	-0.050585452
52	0xbd60fb1f	-0.054926988
53	0x3e68d8f5	0.22739013
54	0x3d51340c	0.051075026
55	0x3e977d6c	0.29587877
56	0xbdaaa6d9	-0.08332605
57	0xbd59f3f0	-0.053211153
58	0xbd68cc86	-0.056835674
59	0xbdde388d	-0.1085063
60	0xbe857726	-0.26067466
61	0x3c79aa98	0.015238427
62	0xbc9e5588	-0.019327894
63	0xbe0bf6dd	-0.1366839
64	0x3dfcdfbd	0.12347362
65	0xbe0ffdc2	-0.14061645
66	0xbdf7c198	-0.12097472
67	0xbba9f5a2	-0.0051867524
68	0xbc722acb	-0.01478071
69	0x398ea93f	0.0002721045
70	0xbe159c7d	-0.14610477
71	0xbe4acc9f	-0.19804619
72	0x3e6a1fe0	0.22863722
73	0x3e6caadf	0.23112057
74	0x3e00e25c	0.12586349
75	0xbd0e96f8	-0.034811944
76	0xbd96179a	-0.073287204
77	0x3e027499	0.12739791
78	0xbe459dfd	-0.19298549
79	0xbea0b3e7	-0.31387255
80	0x3e39d2df	0.18146847
81	0xbd47930c	-0.04872422
82	0xbedca79d	-0.4309663
83	0x3ea2fe22	0.31834513
84	0xbd348982	-0.04407645
85	0xbca3d87f	-0.020000694
86	0x3e4adb16	0.19810137
87	0x3e42f6b7	0.19039427
88	0x3ebe1148	0.3712256
89	0xba4af453	-0.00077420956
90	0x3ec0ec07	0.37680075
91	0x3ee6e132	0.45093685
92	0x3e8f4e62	0.2798949
93	0xbef43718	-0.47698283
94	0x3f2f5552	0.68489563
95	0x3e686445	0.226945
96	0xbea7217f	-0.32642743
97	0x3d8e3a5f	0.06944727
98	0x3e399373	0.18122654
99	0x3e8f3131	0.27967218
100	0x3d7952a3	0.060869824
101	0xbd93c212	-0.0721475
102	0xbe93c44b	-0.28860697
103	0xbd5c7d42	-0.053830393
104	0x3d3a6ea0	0.045515656
105	0x3e56e558	0.20985925
106	0x3e198020	0.14990282
107	0xbe6830be	-0.22674844
108	0x3e21f4eb	0.15816085
109	0x3e1a9b62	0.15098336
110	0xbdf0cda0	-0.1175797
111	0x3dc6a056	0.096985504
112	0xbd6c6879	-0.05771682
113	0xbea17a66	-0.31538695
114	0xbcce609f	-0.025192557
115	0x3d4b2b85	0.04960205
116	0x3e20bc82	0.1569691
117	0xbe02a75f	-0.1275916
118	0x3e632864	0.22183377
119	0xbde2ed3a	-0.110804036
120	0xbd8a4330	-0.06751096
121	0xbe44be77	-0.19213282
122	0xbe85ce43	-0.26133928
123	0xbbd7720f	-0.006574876
124	0x3df84f38	0.12124485
125	0xbd5413cc	-0.051776692
126	0xbe6108d9	-0.21976031
127	0x3cf27545	0.029596934
128	0xbe6b5e13	-0.22985105
129	0x3e1d2aa3	0.15348296
130	0xbe0b5f83	-0.13610654
131	0xbbac49f8	-0.005257841
132	0x3d3c35fe	0.04594993
133	0x3c691719	0.014226698
134	0xbdd28b7d	-0.102805115
135	0x3c939d68	0.018019393
136	0xbee46ba6	-0.4461338
137	0xbef89cc9	-0.48557118
138	0xbd9b8770	-0.07594192
139	0x3c657223	0.014004263
140	0x3e88755c	0.26652038
141	0x3e0b6cea	0.13615766
142	0x3e8fbbc0	0.2807293
143	0x3ede7d13	0.434548
144	0x3ce02c88	0.027364984
145	0xbd7ee97c	-0.062234387
146	0xbeccaf6f	-0.39977595
147	0xbe1d98fb	-0.15390389
148	0x3de5e592	0.11225428
149	0x3d4a1850	0.049339592
150	0x3e49771c	0.19674343
151	0xbd878f57	-0.06619137
152	0x3d313e95	0.043272574
153	0x3cf358ff	0.029705523
154	0xbd17a1d2	-0.03701956
155	0x3f29d40e	0.66339195
156	0x3dee74ea	0.11643393
157	0x3e60152c	0.21883076
158	0xbe14d619	-0.14534797
159	0xbe2dead8	-0.16984117
160	0x3e20ebc5	0.15714939
161	0x3e954c37	0.2915971
162	0xbe2f1069	-0.17096104
163	0x3e8b2b02	0.2718125
164	0x3e564074	0.20923024
165	0xbe4c7441	-0.19966222
166	0xbd8ce932	-0.06880416
167	0x3cdbc04a	0.026825089
168	0xbd109b72	-0.035304494
169	0xbed9bb24	-0.4252559
170	0xbe919223	-0.28431806
171	0x3dc6ccb9	0.097070165
172	0xbd89c308	-0.067266524
173	0xbea95c69	-0.33078316
174	0x3c533c48	0.01289279
175	0x3e3a4743	0.18191247
176	0x3cfe6827	0.031055523
177	0x3e3ff988	0.18747532
178	0xbe8bb72c	-0.27288187
179	0xbe308364	-0.17237622
180	0x3c36940a	0.011143694
181	0xbe93a286	-0.28834933
182	0x3d6443e9	0.055728827
183	0xbdbbf60d	-0.0917779
184	0x3cf6fddc	0.030150346
185	0xba0508e3	-0.00050748716
186	0xbe5402dd	-0.20704217
187	0x3d37db02	0.044886597
188	0xbdf02368	-0.11725503
189	0xbda9dcbc	-0.08294055
190	0xbe68bddc	-0.22728676
191	0x3f4c73cd	0.798642
192	0xbe55beab	-0.20873515
193	0x3d82033a	0.06348272
194	0x3c94e35b	0.018174818
195	0x3e4413b7	0.19148146
196	0xbdf103de	-0.11768316
197	0xbcb032d2	-0.021508608
198	0x3dbf75a8	0.09348613
199	0xbd51e4f5	-0.05124374
200	0x3f1db707	0.616074
201	0xbbc9b2bf	-0.0061553414
202	0x3d9a4e78	0.07534498
203	0x3f185658	0.5950675
204	0xbdcf65e5	-0.10126857
205	0x3bb9f9df	0.005675539
206	0x3d98c95e	0.07460283
207	0xbef7fbae	-0.48434204
208	0x3ca10258	0.019654438
209	0x3e5e72b3	0.21723442
210	0xbf0a9403	-0.541321
211	0x3ddf47f2	0.10902394
212	0xbe546b4d	-0.20744057
213	0x3e534c52	0.20634583
214	0xbeb81b49	-0.35958317
215	0x3da4eee6	0.08053379
216	0xbe9e9551	-0.30973294
217	0x3c5cda90	0.013479844
218	0x3e847ec9	0.2587798
219	0x3d3cec30	0.046123683
220	0xbd88f47c	-0.06687257
221	0x3da009fa	0.07814403
222	0xbe4910db	-0.19635336
223	0x3e5ab0c2	0.2135649
224	0xbe251660	-0.16121817
225	0x3e8279e8	0.25483632
226	0x3ebe095e	0.37116522
227	0x3f4da0b2	0.80323327
228	0x3dc5e4b9	0.09662766
229	0x3e42dd16	0.1902965
230	0x3e7f67e6	0.24941978
231	0x3e03b7ac	0.12863034
232	0xbdfbdd53	-0.122980736
233	0x3e6d628c	0.23182124
234	0xbdbd07c8	-0.0923
235	0xbd080889	-0.033211265
236	0x3f02f1b2	0.5115005
237	0x3ee52f19	0.44762495
238	0xbd3b2377	-0.04568812
239	0x3df73339	0.12070317
240	0x3cfe0e68	0.031012729
241	0xbd665b6a	-0.056239523
242	0x3e3beeb0	0.18352771
243	0x3d8d077a	0.06886192
244	0x3e066603	0.13124852
245	0x3eb59de2	0.35472018
246	0xbd341264	-0.04396285
247	0x3e42ab4c	0.19010657
248	0xbe4d2dca	-0.20036998
249	0xbe5c0dcc	-0.21489638
250	0xbefce92c	-0.49396646
251	0xbe0a91ea	-0.13532224
252	0x3e3586f0	0.17727256
253	0x3ddeee4a	0.10885294
254	0x3e5d25aa	0.21596399
255	0x3cc7200e	0.024307277

fc3.bias f4 [4]
0	0x3f014378	0.50493574
1	0x3fd70c15	1.6800562
2	0x3f07001b	0.52734536
3	0x3e39fea2	0.18163541
